…
2021-12-03 19:50:08.504626: W tensorflow/core/kernels/data/cache_dataset_ops.cc:768] The calling iterator did not fully read the dataset being cached. In order to avoid unexpected truncation of the dataset, the partially cached contents of the dataset  will be discarded. This can happen if you have an input pipeline similar to `dataset.cache().take(k).repeat()`. You should use `dataset.take(k).cache().repeat()` instead.
0.0 0.8544439
Model: "sequential"
_________________________________________________________________
 Layer (type)                Output Shape              Param #   
=================================================================
 rescaling_1 (Rescaling)     (None, 180, 180, 3)       0         
                                                                 
 conv2d (Conv2D)             (None, 180, 180, 2)       56        
                                                                 
 max_pooling2d (MaxPooling2D  (None, 90, 90, 2)        0         
 )                                                               
                                                                 
 conv2d_1 (Conv2D)           (None, 90, 90, 2)         38        
                                                                 
 max_pooling2d_1 (MaxPooling  (None, 45, 45, 2)        0         
 2D)                                                             
                                                                 
 flatten (Flatten)           (None, 4050)              0         
                                                                 
 dense (Dense)               (None, 6)                 24306     
                                                                 
 dense_1 (Dense)             (None, 7)                 49        
                                                                 
=================================================================
Total params: 24,449
Trainable params: 24,449
Non-trainable params: 0
_________________________________________________________________
None
Epoch 1/15
2021-12-03 19:50:21.516076: I tensorflow/core/kernels/data/shuffle_dataset_op.cc:380] Filling up shuffle buffer (this may take a while): 222 of 1000
…
